mujoco/policies/exported/policy.onnx (onnx, 17146 bytes, 8 tensors)

actor.0.weight f4 [32, 73]
00000000: 3cea 8b3f e170 fa3e 1357 1d3e c102 d53e
00000010: ce7b 273f 2c88 803e 73b1 4cbd bb4e 1c3e
00000020: 9967 933f fbc6 1dbd 5443 17be 37b5 453e
00000030: b863 0e3e 9204 fc3e 3f13 bd3d f30f c3be
00000040: f61f 693e 798b a33c f94d c53d 52c8 32be
00000050: 0326 b6bd 5a6f 89bd be62 0a3d e5c5 a9bc
00000060: 6ec3 533e 099f 52bd 4322 45bb 2f1a 09be
00000070: 184e 0abd 77f0 55be a231 4b3d b703 f53d
00000080: 8fda c93e ca64 2fbd fb5a 813e 9a34 803e
00000090: b729 91be f557 343f c790 0ebe c721 cebe
000000a0: e938 afbb 54da 8d3b 4751 c03e c68e c1bc
000000b0: f782 a23c c77e cebe 3cad c83d 377f 183e
000000c0: 7a21 23bd c106 243e 3298 c73d 43b3 84bc
000000d0: 8d6d 4cbc b6b1 403f af41 19be 5fdc 28bd
000000e0: 21d1 463e 1bbf ccbd d897 2d3d f151 693d
000000f0: ecb3 b43d 06cd 623d cb80 3cbd 57a5 46be
00000100: 29e5 9abe 6b92 663d ee34 aabe a581 f1be
00000110: 6e98 18be bdac afbe a32a b33d 8dc7 61be
00000120: 45c5 66be 69ab 563f 2eac 3d3e 7120 d3be
00000130: 2c7a e5be 2a8e 94bf 3e70 5e3f b833 843e
00000140: f655 83be 1494 173e d00a d53d 2569 203e
00000150: 97ba 8f3c 543e ae3d e881 073f 6879 153e
00000160: 508b e93c ba74 f2bd ae6c 5c3e d69e 93be
00000170: 06b7 d1bc 26f6 393d 13a9 713d b709 03bf
00000180: b495 c03d ec2a 68be be3c 0dbe 8168 1b3e
00000190: e6ed ae3d f5fe d93d a8e4 a0be be1a 85bc
000001a0: ea96 543d 63a7 e23c a852 cb3d fd5d 1b3e
000001b0: 9c03 f9bd 7f83 fbbe 1395 f03d 3c2a 3f3e
000001c0: 6e19 d43e ea5a bfbe 08ba 2ebe 56e9 1dbe
000001d0: 6890 653e 2498 85be e81c 9d3e f874 82be
000001e0: 4ddf e13e 671b debc af3f c1be 5e4f c23e
000001f0: 2bda 1f3e 61d1 aebe fcd4 403d 416b 8a3c
00000200: 8350 f23d 472b 623e 1061 abbe 6917 953d
00000210: 90d7 0cbe 3daa 843e b6eb 32be 0fc3 323e
00000220: 4714 073f 321c 8b3e 8ce1 893e 8ed6 3bbe
00000230: a570 913d aede 8dbe 83bb 34bd 58f5 063f
00000240: 6322 493e 8201 dabd 71ba 7f3e fcc5 343f
00000250: 81fc c73e 4674 6fbf f472 093f ee91 b83e
00000260: 9213 05bc b834 033e 231c 3c3f 9c45 bbbc
00000270: f5f5 103f f834 87be 8b51 f43d a04a b63e
00000280: 8f7d ca3c 0ea3 683e a85a 8a3b 60a9 ffbe
00000290: 280f 173f 2b04 58bd c6c6 aa3c b924 d73d
000002a0: f6e9 ea3e 7100 ecbd 5981 253e 1609 8f3d
000002b0: 463d 5fbd 7137 c43c 3537 163d 7f4d 813e
000002c0: 784c e8bc 9ad5 d3bc 3d92 a63d bd97 9b3e
000002d0: 47ad b83b 33a2 febb 3d0a b43d b4c6 cabe
000002e0: e7d3 89be 4356 6b3e c4d6 053f 58d5 d7be
000002f0: e53f 8abe 9b33 893e e446 21bd 50ae 1ebe
00000300: 0336 113d 8d73 d73e 1164 8c3e b6f9 33bc
00000310: e4ed 833d 73e0 85bd cb00 6c3e 9e2e e83d
00000320: 43d7 82be 4959 3e3e e786 0d3e 0405 973d
00000330: c3e7 e63e e303 45be 9ce3 81bd d57d f13c
00000340: 76e8 3bbd 107b 353f 55b0 9e3e eae2 423e
00000350: bca8 d3be b2b7 9abe e37f cb3e cd67 db3c
00000360: a78c 023e ce00 bbbe 1516 2b3e 9c62 5d3d
00000370: f5d8 053f 3182 363f 6665 9dbf 51cc d43d
00000380: 5b44 cb3d f283 59be a7a7 eebd b846 9bbe
00000390: aeb4 503d 5d75 82be a286 e4bd 9639 fa3c
000003a0: 7cd4 6d3d 243e 32bf abb9 b1bd 407a 48bd
000003b0: f3c3 2c3c 749e 5dbe eead 81bd 0649 333a
000003c0: dc7a 65be 69f5 553e ab53 59be 47e5 fb3d
000003d0: 4d47 e5bd 666f 89bd 1b19 e3bb 84a8 78bd
000003e0: 4945 9d3c 57ce a8bd 94d1 cebc 248a 58bd
000003f0: c719 af3d 6c53 873e bc6f f7bd 2b86 ce3e
1.0930858 0.48914245 0.15365247 0.41603664 0.65423286 0.2510389 -0.049973916 0.15264408
1.151599 -0.03851984 -0.14771777 0.19307409 0.13905227 0.49222237 0.092321865 -0.38098106
0.22766098 0.019963967 0.09634013 -0.17459229 -0.08893969 -0.06710692 0.033785574 -0.020724246
0.2068002 -0.0514212 -0.0030080236 -0.13388894 -0.033765882 -0.20892511 0.04960788 0.11963599
0.3942456 -0.04282073 0.25264725 0.25040132 -0.28352138 0.7044671 -0.13922416 -0.40260145
-0.0053473604 0.0043290053 0.3756201 -0.02362765 0.01983784 -0.40331098 0.09798667 0.14892279
-0.039826848 0.16018201 0.09745826 -0.01619876 -0.012477291 0.75271165 -0.14966463 -0.041225787
0.19415714 -0.09997388 0.042381138 0.05696291 0.0882338 0.055371307 -0.046021264 -0.1939901
-0.3025296 0.05629198 -0.33243507 -0.47169223 -0.14901897 -0.34311476 0.08748367 -0.22048779
-0.2253619 0.838553 0.18522713 -0.41235688 -0.44819772 -1.1605885 0.8689002 0.25820708
-0.2565152 0.14802581 0.10402453 0.1566511 0.017545028 0.08507982 0.52932596 0.14597094
0.028508812 -0.1183867 0.21525833 -0.2883212 -0.025599968 0.04540076 0.058999132 -0.511867
0.094035536 -0.22672623 -0.13792703 0.15176584 0.08541469 0.10644332 -0.3142445 -0.016248103
0.051901735 0.027667707 0.09927875 0.15172572 -0.121588916 -0.4912376 0.11747184 0.18668455
0.4142565 -0.3737405 -0.17063153 -0.15421042 0.22418368 -0.26092637 0.30686116 -0.25479865
0.44115677 -0.027112676 -0.377439 0.37951177 0.15610568 -0.34144118 0.047078118 0.016896846
0.11831763 0.22086821 -0.3347249 0.07279856 -0.13754106 0.25911132 -0.17472729 0.17457221
0.52765316 0.2716995 0.2692989 -0.18343565 0.07101563 -0.27708954 -0.044124138 0.52718115
0.19642024 -0.10644819 0.24973466 0.706146 0.39059833 -0.93536794 0.5369103 0.36048836
-0.008122342 0.1281308 0.73480433 -0.02286034 0.566253 -0.264076 0.119296156 0.3560381
0.024718074 0.2271845 0.004222233 -0.4993391 0.590075 -0.05273835 0.020846736 0.10505051
0.45881623 -0.11523522 0.16162623 0.06984155 -0.054501794 0.023952218 0.036673743 0.25254437
-0.028356776 -0.02585869 0.081333615 0.30389205 0.0056358906 -0.0077708005 0.08791015 -0.39604723
-0.2691948 0.22982125 0.5228083 -0.42154956 -0.27001873 0.26797184 -0.039374247 -0.15496182
0.0354519 0.42080346 0.27420095 -0.010984829 0.064418584 -0.06536951 0.23047177 0.113370165
-0.25554857 0.18588747 0.13820992 0.073740035 0.45098695 -0.19239764 -0.06342241 0.029478947
-0.04587599 0.70890903 0.30993906 0.19031873 -0.41339672 -0.30218273 0.39746007 0.026782895
0.12748967 -0.3652405 0.16707642 0.05404912 0.52284175 0.71292406 -1.2296569 0.10390533
0.09925147 -0.2124174 -0.11653071 -0.30327392 0.05095356 -0.25480166 -0.11158492 0.030545037
0.05806397 -0.6962607 -0.086779915 -0.04894471 0.010544765 -0.21642476 -0.063320026 0.00068391894
-0.22410148 0.20894398 -0.21223323 0.122995906 -0.1119524 -0.06710701 -0.006930483 -0.060707584
0.019198077 -0.08242481 -0.025246419 -0.052866116 0.085498385 0.26430833 -0.120818585 0.40336737

actor.0.bias f4 [32]
00000000: cb59 bebe d46a 57bf 4100 6ebe 7404 08bf
00000010: 4360 babe 0036 94be ad38 58bf ce3d afbe
00000020: 6ccf b43e 9dd0 31bf e5f5 91be 2633 89be
00000030: b37f d1be 6869 76be 7f71 30be f69b 33be
00000040: ed8a 5fbd 13a2 3dbe 6f06 05bf a815 0fbf
00000050: eccf 80be 0f8e 82be cd4f 43bf df59 de3e
00000060: 7083 66bf 60f9 223c fb9b dbbd e32f 883d
00000070: 63d0 2e3b 7a71 36bf 2d7a ff3d 0e79 08bd
-0.37177882 -0.8414738 -0.23242284 -0.53131795 -0.36401567 -0.2894745 -0.8446148 -0.3422684
0.353145 -0.69458944 -0.28507915 -0.26796836 -0.4091774 -0.24063647 -0.17230795 -0.17539963
-0.05457585 -0.18518858 -0.5196294 -0.5589242 -0.25158632 -0.25499007 -0.7629364 0.4342794
-0.9004431 0.009947151 -0.1072311 0.06649759 0.00266745 -0.712669 0.12474475 -0.03331857

actor.2.weight f4 [32, 32]
00000000: 039e 08bf 8775 60bd 5b0d 763d 538c fa3d
00000010: 4d17 8ebe 7763 2c3d 4f33 afbc 0d5c 293e
00000020: e4e5 06bf ca2e e23e b551 e13d a357 9bbe
00000030: 794c f13d cb45 c63e b1c0 2cbe a03d 82be
00000040: b81d 8bbe a7a8 3d3d e094 1abe efa4 02bd
00000050: 4244 a63d 5910 10bf c6ae 123e 2b5a 9b3e
00000060: 3cb0 683e 9d16 2abc 7f0a 8abf b2cc 49be
00000070: 42c2 3d3e 1dd9 063e 71d6 63bd 06e1 d3bd
00000080: 43e4 0bbe 0462 22be 342a 65be 78d8 cf3b
00000090: f9c6 583e e471 013e 0bd5 4a3e 361e a5be
000000a0: 58bb 643c a58c d5bd 6b06 97be 12e7 a03e
000000b0: 5f82 bdbe 2de2 823e 250b 47be 3d5a 123e
000000c0: b0ad 543d 8a4c 51be 244f 1e3e 14bf 703e
000000d0: 2fb0 c2be e467 d1be 4cd0 903e 0633 b23e
000000e0: 0bcf d5bd 3868 883d 960d da3d 818e 853e
000000f0: ecaf f63c 0317 08be 3cc7 80be f87e 79be
00000100: e0b7 efbe 36ac 3bbe 292f e9be e3cb 113e
00000110: f05a 50bf 088d 21bf 8bee 8e3e 4712 55be
00000120: 5326 973e d8d0 093e 782a 523d a4e3 af3d
00000130: 6a06 5ebd 7644 afbe e83f 02be 1686 99bd
00000140: 5e44 13be 48ad dabe 048b 90be 2791 debe
00000150: a96f 13bd e51f 0fbf b59d dd3d 05ad 07bf
00000160: 9998 cbbd b8d3 373e 0e5c 6dbe ee3c c63d
00000170: 9bbd 02bc 1930 cdbe 9038 11ba 066f ba3d
00000180: 2c9c a5be 908c e13d 4c57 543e af9a e6be
00000190: d324 43bd db29 2cbf 6357 8cbf 4117 18bf
000001a0: 3647 43be e279 f6bd d9f8 36be 01e0 2b3e
000001b0: bbfa 993d 18a5 91be 0ed9 523e 1dee afbe
000001c0: 8ad0 81be d47e 1bbd 0801 f33d 8662 c6be
000001d0: 732d 213e fb0e a5be b021 1abf d402 f23d
000001e0: a9a0 553e 3c2a 543d d562 63bd eca2 4c3e
000001f0: 75e4 f4bd 82e5 403e b008 03bf 1d97 233d
00000200: 972c 123d 7f2b 683c a070 91be e7b4 f93d
00000210: 9059 72be 8948 94be e396 87bf c9ea bfbe
00000220: 9d2b 41be 4511 6cbe 8592 4e3e 5493 1cbe
00000230: d22d b63d d23b f33d f0fa 1ebf 069a 55bc
00000240: 0b1c 3ebe eb43 913e a0c2 643e 2558 3bbe
00000250: 351d 39bf 960a 29bf 83b6 be3e 052d 113d
00000260: 1675 973b ea20 913d de4a 32bf 6bb6 f53d
00000270: e0bc d6bd 9e43 163f fe50 953e 6410 dd3d
00000280: 2ab3 3d3e 7b79 3c3e 0363 a73d 8fe1 ccbe
00000290: 8163 23bf 9d5a cabd 79fd c8be 2a2a 0abc
000002a0: 660a 873e 77b5 a33e a8cb a53e a5de f7bc
000002b0: 8d7b a33e 184f ae3e 6060 ddbe 1672 a93e
000002c0: 3aa6 f93e 3178 603e 5425 33be 36d7 d1be
000002d0: e6f3 d4be 874a d43e f5a5 9abe 8eaf 08bd
000002e0: fc16 88bb 305a 443d 053c 1d3e 4789 ca3d
000002f0: 07cd 1e3e ee92 c4bd cbad cf3d 16b7 b9bd
00000300: f885 89bc 8775 eb3e 7165 4fbe 3dc2 02bf
00000310: ae68 9cbe f77d cebe 31dc 07be 7987 c63e
00000320: 343a 63bd 1cd3 db3e 1466 c0bc 8596 ad3e
00000330: a2c4 e33d d9b8 153f 03e1 a33d 5afd c0bd
00000340: 01bb fe3d fa74 22be 193f 863e 718e 2e3e
00000350: 7dc4 8abe fd47 b1be 2a81 7c3d 61e7 e6bd
00000360: d038 09bf 69c3 e4be d08a b4bc dd68 0ebe
00000370: 0de4 2b3e fe72 87be d750 ecbc e285 ddbd
00000380: cae8 913e e67d 01be e4d7 10be 6ff6 063e
00000390: a7d1 adbd d3d4 083e 7255 cc3e cff1 693e
000003a0: 754e 04bf 9bc2 95be f968 17be 616a b63d
000003b0: 661b 0b3e fc94 2cbd d324 5d3e b307 06be
000003c0: e424 033e 6b15 ac3c a7d0 903d eb83 033d
000003d0: af07 593e c74c 79bb f441 fc3d e571 08be
000003e0: 687b d2be 838c b6bd 80a4 0f3e a302 30bf
000003f0: 8e9a b33d 7db2 f6be 61f8 23bc 18c4 ef3c
-0.53366107 -0.054799583 0.06007133 0.12233796 -0.27752152 0.042087045 -0.02138677 0.16539021
-0.52694535 0.44176322 0.110019125 -0.303403 0.11782164 0.38725123 -0.16870381 -0.2543764
-0.2717111 0.046303418 -0.15095854 -0.031895574 0.08118488 -0.56274945 0.14324483 0.3034223
0.22723478 -0.010381368 -1.0784453 -0.19706991 0.18531135 0.1316876 -0.05562443 -0.10345654
-0.13661294 -0.15857702 -0.2237938 0.0063429438 0.21169652 0.12641102 0.19807832 -0.32249612
0.013960682 -0.104272164 -0.29497084 0.31426293 -0.37013528 0.25563183 -0.19437845 0.14292236
0.051923454 -0.20439354 0.15459877 0.2351039 -0.38025042 -0.40899575 0.28283918 0.34804553
-0.10439881 0.06660503 0.106471226 0.26085284 0.030113183 -0.13290028 -0.25152004 -0.24364841
-0.46819973 -0.18327412 -0.45543793 0.14237933 -0.8138876 -0.6310582 0.2791637 -0.20807754
0.29521427 0.13458574 0.051310033 0.08588341 -0.054205336 -0.3423192 -0.12719691 -0.07496278
-0.14381549 -0.42710328 -0.2823106 -0.43470117 -0.03599516 -0.5590804 0.10821096 -0.5299838
-0.09941215 0.17951858 -0.23179647 0.0967959 -0.007979776 -0.40075758 -0.00055397395 0.09103207
-0.32345712 0.11013138 0.20736426 -0.4503989 -0.04764254 -0.67251366 -1.0964168 -0.5941048
-0.19070134 -0.12034966 -0.17868365 0.1678467 0.07518526 -0.2844627 0.20590612 -0.34361354
-0.25354415 -0.03796275 0.11865431 -0.38747042 0.15739994 -0.32237992 -0.60207653 0.11816946
0.20862068 0.05179809 -0.055514175 0.19984025 -0.11957637 0.1883755 -0.5118513 0.039939035
0.035687055 0.0141705265 -0.2840624 0.121927075 -0.23666978 -0.2896159 -1.0592922 -0.37483814
-0.18864293 -0.23053463 0.2017308 -0.15290576 0.08895458 0.11876644 -0.6210165 -0.01303721
-0.18565385 0.2837213 0.22339869 -0.18295343 -0.7231019 -0.6603178 0.3724862 0.035443325
0.004622112 0.07086356 -0.6964549 0.11997684 -0.10485244 0.58696926 0.29163355 0.10794142
0.18525377 0.18405716 0.08173182 -0.40015838 -0.63823706 -0.09880564 -0.39255884 -0.008432904
0.2637512 0.31974384 0.3238194 -0.030257532 0.319302 0.3404472 -0.4323759 0.33094853
0.48759633 0.2192085 -0.17494708 -0.40984505 -0.4159233 0.4146311 -0.3020474 -0.033370547
-0.0041531306 0.047937572 0.15354927 0.09889465 0.15507899 -0.09598337 0.1014057 -0.09068124
-0.016787514 0.45988104 -0.2025354 -0.51077634 -0.30548614 -0.4033048 -0.1326759 0.38775232
-0.05547543 0.429345 -0.023486175 0.339039 0.11121489 0.5848518 0.08001902 -0.09423323
0.12438012 -0.15864936 0.26220015 0.17046525 -0.27103034 -0.34625235 0.061646618 -0.11274601
-0.53602314 -0.44680336 -0.022038847 -0.1390719 0.16786213 -0.2645492 -0.028847141 -0.10816552
0.28497916 -0.12645683 -0.14144856 0.13179944 -0.08487254 0.13362436 0.3990894 0.22846149
-0.51682216 -0.29250035 -0.14786138 0.08907009 0.1358467 -0.04213427 0.21596079 -0.13088875
0.12807041 0.021006307 0.07071047 0.03210823 0.21194337 -0.0038040148 0.12317267 -0.13324697
-0.41109776 -0.08913519 0.14027596 -0.68754023 0.08769713 -0.4818305 -0.010007949 0.02926831

actor.2.bias f4 [32]
00000000: 118c 0dbf 5919 dc3d 9680 52bf a216 8b3e
00000010: a678 eabe 488e 17be 4941 873c 15f9 d5be
00000020: a98b e4be 5a0a 5abf fe2d 3dbf 2d5d 2abf
00000030: 4e92 0a3f 3c36 003e 45fe cabe 5880 683d
00000040: 0ed0 1b3e a9f3 93bf e1f2 29be 1db6 e03e
00000050: 2efa 32be dfe0 f5be 2f54 ae3e a9cc 7abd
00000060: 4246 d3bc 6591 983d 4765 643e 14ce 10be
00000070: 630e 57bf 1102 173b 6bc7 713e 776d 47bf
-0.5529185 0.10747022 -0.82227457 0.27165705 -0.45795172 -0.1480037 0.016510623 -0.41791597
-0.44637802 -0.85172045 -0.73898304 -0.66548425 0.54129493 0.12520689 -0.39647117 0.056763023
0.15216085 -1.1558734 -0.16596557 0.4388894 -0.17478248 -0.48023126 0.34048602 -0.061230335
-0.025790337 0.07449607 0.22304259 -0.14141113 -0.8400633 0.0023042003 0.23611228 -0.77901405

actor.4.weight f4 [13, 32]
00000000: ab3c 803d db92 64bd b403 1c3f 9d5a 9ebe
00000010: 15b4 db3d 8aab 89bd ff1a 9abd 4e68 373d
00000020: d992 8a3c e672 433f b6a2 973e 78ed 05be
00000030: 8367 1c3b a0d2 63be 39ff 0f3e dcb0 cbbd
00000040: 204e ebbd 406c 333f b402 773d bb8e 07bf
00000050: ff3f 103d d17a cbbd 4163 ba3d 1342 9ebd
00000060: 23fe a03e 9db6 e1bd b5d2 fe3d 3403 173e
00000070: 74a7 f83d 50a5 b8bb a19e c3bd f50a e23e
00000080: 1601 18bf 6052 48bd 435b 27bf ad59 a7bd
00000090: f86c 00bf cbee f93d bfac b9bd 6514 d83b
000000a0: 518f 153e 02b1 3ebd b363 bdbe ef1b 9dbe
000000b0: 6d78 923d 04f8 693d a95a 8dbe 4141 a8be
000000c0: 45d8 0a3e e330 5cbe 5ee6 883e af11 b03e
000000d0: c0d1 633e cbee 0f3e dafb d63d d1cc bb3a
000000e0: b492 cd3e 3ff3 8b3e 51c9 663e bb65 6e3c
000000f0: cf10 f5be 01bf f7be 4a5c c9bc ba68 74be
00000100: f4c9 5ebe 3d50 95be fa82 733d 9825 d9bc
00000110: b046 ac3d 7539 72bd 8246 d5bd 57d5 82be
00000120: d53b 3cbe 7d78 803e d3a1 0e3e e704 9bbd
00000130: cc7f 0e3f ee02 fcbd 0a73 e53e 0f79 c5bd
00000140: 83f1 0abf d326 22be ceab 53bd 7e7d ac3e
00000150: 1248 67be 0d87 0b3f df29 05bd 3997 1a3d
00000160: 86ba aa3d 928d 03bf 0b80 ba3e 5962 ef3d
00000170: 6665 aebe dff7 92be a5bc 273f 9643 f73e
00000180: b6a5 83be 6a43 a93d c9c4 61bd 76a8 2dbe
00000190: 9bb1 903d 1c9d 05be ecd2 983d 2b75 d13c
000001a0: 93c9 3abe 709d f2bd 1692 04be dc6a 7d3d
000001b0: ca03 5fbc d2ed 26bb 0cb7 99bd ff25 72be
000001c0: 0230 413d 0751 34be 3ef5 f33c 1318 833b
000001d0: 1c3c 863d e81e 6bbd af20 a3bc b760 953c
000001e0: 48b7 b33c fbae 1cbd 9848 373d 19ad 6cbe
000001f0: a43b f33c 9b56 f1bc 731c cabd a4d6 a6bd
00000200: 68ae 8dbe a86b a93c 24a8 1cbe 44f6 1a3e
00000210: 243f fa3c 844e f1bc 66d4 5ebe fa00 85bd
00000220: bb18 f1be 6d63 8abe d022 a5bd e024 febd
00000230: 15ab 2cbe 1915 673e d5eb edbe 3c83 133d
00000240: b6ce 2d3b 5afe f3bc 8283 8fbe 9891 5fbd
00000250: 8427 133e 8d95 debe d604 f5bd c5ce 80bc
00000260: 3c3b 95bd 268f 873e 43f5 993d 6dc1 593e
00000270: 187e 95bd 629e 933d d22a fabd 9c54 81bd
00000280: 1805 a33c 56b8 6a3d f6c6 3dbe b0b1 11bb
00000290: 3161 0ebb 38ed d13d d47c 3a3c 6c4b 64bd
000002a0: d489 1c3e 772c 053f f709 ac3b 6dde 01be
000002b0: b609 eabc c561 9a3b 81fa c6bd 6d16 6fbd
000002c0: df9c 493d 8f8f 90be cc58 35bd b6bd ea3c
000002d0: 532b 68bd 38f2 9f3e 540d acbd 98b2 eabc
000002e0: 0b65 6cbe 0948 85be 7972 203c 700c c4bd
000002f0: c5a1 56be 2ce1 0a3e b2eb 00bb 0308 cd3e
00000300: f888 8e3d 49fc c9bd c5e7 38bd 351a 543d
00000310: 0ec8 93be 046d 053e 5ba0 2fbd 0537 43be
00000320: 8c8f afbb fab1 ad3d 1f95 1f3f 236e 853e
00000330: d496 89bd c136 293e 57c3 c13e d366 47bd
00000340: 0474 8cbd 41fc b43e 9cf8 0b3e 5cd6 aabd
00000350: 7d26 75bd 8b6f 8c3c 6fca 76bd 93fe 4abd
00000360: b98f f3bd 5a6b 54bd 87e0 42be b041 c13b
00000370: 04a5 2a3d c757 353e 54da c5bd 6cb1 a23e
00000380: 59bf 8c3e 9a48 5d3e c042 db3e 2ba1 59be
00000390: f473 6b3d a5c9 763d 76ad 2cbe ff32 1fbe
000003a0: c0b7 e43d 0bac 20be 30b8 2b3e 02ab 983e
000003b0: f466 34be 9194 33be b14d 85be 4797 3ebe
000003c0: 6e15 3a3b a1c1 bd3e 5832 6e3e ad10 7ebe
000003d0: c8ad 8fbe b98a ed3c ccba 06bd 779d 1fbe
000003e0: 9959 d43e df7b 7bbe ae4f bc3d 098b f83d
000003f0: 9a10 273f eb7d 03bc 0b35 8e3e 042f 3e3f
0.062615715 -0.055804115 0.6094315 -0.30928507 0.10727707 -0.067221716 -0.0752468 0.044777207
0.016915726 0.76347196 0.29616326 -0.13078868 0.0023865409 -0.22248316 0.14062203 -0.099458426
-0.114895105 0.7008705 0.060305312 -0.52952164 0.03521728 -0.09935535 0.091009624 -0.077274464
0.3144389 -0.11021159 0.12442533 0.14747316 0.12141314 -0.005634941 -0.095517404 0.44148985
-0.59376657 -0.048906684 -0.6537363 -0.08171401 -0.50166273 0.12203749 -0.09066152 0.006594228
0.14605452 -0.046555527 -0.36990127 -0.30685374 0.07151876 0.05712129 -0.2760823 -0.32862285
0.13559063 -0.21503024 0.26738256 0.34388492 0.22247982 0.14055936 0.104972556 0.0014328008
0.40150988 0.2733402 0.22537734 0.014550622 -0.47864386 -0.48387912 -0.02458014 -0.23868075
-0.21756727 -0.2916278 0.05945108 -0.026507184 0.0841192 -0.059136827 -0.10413839 -0.2555339
-0.18382199 0.25091925 0.13928919 -0.075692944 0.5566375 -0.12305246 0.4481433 -0.09642231
-0.5427477 -0.15835123 -0.051677518 0.33689493 -0.22586086 0.54502946 -0.032510635 0.037741873
0.08336358 -0.51387894 0.36425814 0.1168868 -0.34061736 -0.28704736 0.65522224 0.4829375
-0.25712365 0.08264811 -0.05511931 -0.16958794 0.070651256 -0.13048214 0.07462105 0.025568565
-0.18240957 -0.11846435 -0.12946352 0.061869487 -0.013611743 -0.0025471342 -0.075056165 -0.23647307
0.047164924 -0.17609034 0.029780027 0.0040006726 0.06554434 -0.05740252 -0.019913046 0.018234594
0.021937981 -0.038252812 0.044746965 -0.23112907 0.029691525 -0.029460242 -0.098687075 -0.08146408
-0.27672124 0.020681217 -0.15298516 0.15133005 0.030547686 -0.029456384 -0.21760711 -0.06494327
-0.4708918 -0.2702898 -0.080632806 -0.12409377 -0.16862138 0.22566642 -0.46468988 0.036013827
0.0026520914 -0.02978437 -0.2803002 -0.05458221 0.14370543 -0.43473473 -0.11963813 -0.015723595
-0.07286689 0.264764 0.07517483 0.21265192 -0.07299441 0.072079435 -0.122151986 -0.06314966
0.01989989 0.057304703 -0.18532929 -0.0022231154 -0.002172541 0.10250324 0.0113823 -0.05573599
0.15286952 0.5202097 0.0052502113 -0.12682505 -0.028569084 0.004711362 -0.097157486 -0.058370996
0.04922187 -0.28234527 -0.044274136 0.028654914 -0.056681942 0.31239486 -0.0840098 -0.028649613
-0.2308542 -0.2603152 0.009792917 -0.09572685 -0.20960148 0.13562459 -0.0019671735 0.40045175
0.069597185 -0.09862573 -0.045142908 0.051782805 -0.28863567 0.13029867 -0.042877536 -0.19063957
-0.0053576883 0.08481212 0.62336916 0.2606059 -0.06718221 0.16524793 0.37844345 -0.048682045
-0.06858066 0.35348704 0.13669056 -0.08341667 -0.05985116 0.017143032 -0.06025165 -0.049559187
-0.11892647 -0.05186019 -0.19030963 0.005897723 0.041661277 0.17709266 -0.096607834 0.31775987
0.27489737 0.21609727 0.42824364 -0.21252887 0.05748363 0.060250897 -0.16863045 -0.15546797
0.1116786 -0.15690629 0.1676948 0.2981797 -0.17617399 -0.17537142 -0.26035836 -0.18612395
0.002839412 0.3706179 0.23261392 -0.24811049 -0.28062272 0.028996812 -0.032892987 -0.15587412
0.41474608 -0.24558972 0.09194885 0.12135894 0.65259707 -0.008025627 0.27774844 0.7429049

actor.4.bias f4 [13]
00000000: 6061 2ebf ccfa 183f 9d15 88bd fa5b a73e
00000010: 36cf 1d3e 339d 463e d3b7 01bf ca55 4dbf
00000020: 9491 a3bf 5fcb 163e e8ba 0e3f 21cf 843d
00000030: 6c12 103f
-0.6811733 0.59757686 -0.066447474 0.3268736 0.15411076 0.19395904 -0.5067112 -0.8020903
-1.2778802 0.14726017 0.55753946 0.06484819 0.5627811

normalizer._mean f4 [1, 73]
00000000: fa41 dcbb 3122 213c 75ae 82bc e88a 583e
00000010: 5769 56bd 2b17 34bf 33e7 87be 0167 903e
00000020: 98a1 f8be 05cc 203e 71e7 73be 7d92 c9be
00000030: 6086 cabe 80ef c93d 124c d5be c4f2 2e3c
00000040: 3f51 db3a ff6e abbe 3281 78be 5d67 0a3c
00000050: ec24 943a 60c0 e3bd e846 cd3d f113 8cbe
00000060: 0719 8cbe 2141 6abb bd11 bb3d c1d3 6f3a
00000070: 2853 5a3a 57e4 ef3b 8886 ef3b 3ed2 8039
00000080: 0691 33b7 0ede 043d 1865 b6bc dd57 c7bd
00000090: 2e13 ed3b 44d3 dbbd 1a03 a3bd cd94 9abd
000000a0: c605 a93d dea4 83bc 453a 20b9 da60 52bb
000000b0: 8040 ac3d a762 923d f0e7 403a 6998 453b
000000c0: 18ce 013d b0de 43bd fdfd 85bd 0052 81bd
000000d0: 5076 6cbd 844b 37be 1dcc 6d3a 5d09 0f3a
000000e0: 9b77 443a e117 b6ba 8f0f 8c39 1622 f7b9
000000f0: d35a 13c0 e441 2740 46ab 143f 09c8 033f
00000100: e752 6cbf c25b 0b3f 0a5f cabf 3655 19c0
00000110: b468 34c0 4b45 0a3e c96f 643e 8ecc 51bc
00000120: 5ff7 a93f
-0.006721732 0.009834812 -0.015952328 0.21146739 -0.052346554 -0.7034785 -0.26543579 0.28203586
-0.48560786 0.15702827 -0.23818757 -0.39369574 -0.39555645 0.09860134 -0.416596 0.010677997
0.0016732587 -0.3348312 -0.24268034 0.008447495 0.0011302507 -0.11120677 0.1002329 -0.27358964
-0.27362844 -0.0035744386 0.09134243 0.000914868 0.0008328431 0.0073209214 0.0073097385 0.00024570705
-1.0702997e-05 0.03243833 -0.022265002 -0.097335555 0.0072349524 -0.10733655 -0.07959576 -0.07547913
0.08253054 -0.016069826 -0.00015280496 -0.0032101185 0.0841074 0.07147723 0.000735878 0.0030150658
0.031690687 -0.047819793 -0.06542585 -0.063144684 -0.05773002 -0.178999 0.0009071248 0.00054564123
0.0007494629 -0.0013892615 0.00026714473 -0.00047136907 -2.3024185 2.6133966 0.5807384 0.51477104
-0.92314 0.54436886 -1.5810254 -2.3958259 -2.8188906 0.13502996 0.22308268 -0.012805117
1.3278617

onnx::Div_20 f4 [1, 73]
00000000: 2ae6 7d3e 9dd2 683e d6d4 043f 7ca7 ae3e
00000010: d2f5 8f3e 1a4a 093f 5541 813e 85d7 783e
00000020: 8074 693f 01cc 163e d772 4c3f 1f89 0e3e
00000030: db1e 103e b955 083f 3926 b73e 7b35 073e
00000040: ad08 073e d9ca 823e 0d77 c83e 5991 043e
00000050: e141 043e f321 8b3e 6aee e13e cdee 053e
00000060: b602 063e 156d 4c3e 8401 5c3e 2f7c 003e
00000070: b87d 003e 2bc2 003e 36cb 003e 197a 003e
00000080: 737c 003e eb3b 3c40 055a 4040 4a46 2d40
00000090: 25f9 d03f 1eba 1340 63ae 233f 3b60 2c3f
000000a0: 8e28 ee3f 6e2c 3540 d5ac bd3e 9bcf ab3e
000000b0: 1e63 3040 32c7 4340 cd45 be3e 49e1 ad3e
000000c0: 658d 6540 d617 6540 6ed6 193f f719 223f
000000d0: 67f0 9340 4a2d 7a40 18ee 7a3d 9d8e 8f3d
000000e0: 26a2 713e d5af 753e b186 db3c 9463 cb3c
000000f0: 9d0d 2640 623c 3740 0acb ba40 65e2 463f
00000100: 0d3c 5140 e8b5 1840 487a d83f 9865 0e40
00000110: 6d72 5f40 b982 5040 1e8e 6a40 8c29 5440
00000120: 0328 8b40
0.24794832 0.22736593 0.5188726 0.34112155 0.28117234 0.53628695 0.25245157 0.24300964
0.9119339 0.14726259 0.7986273 0.13919495 0.1407427 0.532558 0.3577135 0.13203995
0.13186903 0.25545385 0.3915333 0.1294607 0.12915756 0.2717434 0.44127208 0.13079377
0.13086972 0.19963486 0.21484953 0.12547372 0.12547958 0.12574069 0.12577519 0.12546577
0.12547474 2.941157 3.0054944 2.707415 1.6326033 2.3082347 0.6393797 0.67334336
1.8606126 2.8308368 0.37045923 0.33556828 2.7560496 3.059033 0.3716263 0.3396094
3.586755 3.5795798 0.6009282 0.6332087 4.623096 3.9090142 0.06126222 0.07009623
0.23597011 0.23992856 0.026797624 0.024827756 2.594581 2.8630605 5.837285 0.776892
3.2692902 2.3861027 1.6912317 2.2249508 3.491359 3.2579787 3.6649241 3.3150358
4.3486342
